osnet_x0_25_msmt17_webgpu.onnx (onnx, 939243 bytes, 244 tensors)

backbone.conv2.0.conv2a.conv1.weight f4 [16, 16, 1, 1]
000000 05 57 5f bb 57 f1 c6 be 69 4c 21 bf bc 02 13 be
       -0.0034078967 -0.38856003 -0.6300722 -0.14356512
000010 74 eb b8 3d ea f6 99 bd 17 c7 4c 3d 74 55 1a be
       0.09029284 -0.07517798 0.049994554 -0.1507166
000020 b0 09 04 3d 6d 66 94 bb b0 6f 4b bc 01 9b 4d 3d
       0.0322358 -0.0045288117 -0.012416765 0.05019665
000030 5c 86 57 bd 50 86 5f bc 4a 81 a5 bd 8b 0a 2a bd
       -0.05261837 -0.013642862 -0.080813006 -0.04151396
000040 c2 7e e2 3d 9b 9f 99 bd 67 17 20 3e 8f 76 ba bc
       0.110593334 -0.075011455 0.15633927 -0.022761611
000050 a1 0a 56 be 76 ea ff be 93 de 27 be 20 3e 46 bd
       -0.20902492 -0.49983567 -0.16393499 -0.04839909
000060 c9 c3 15 be 29 c3 a5 3e 85 a3 3d 3e b6 4f 98 3d
       -0.14625467 0.32375458 0.18519409 0.07437079
000070 7f f5 85 be 37 96 2b be 8b 9c 7b 3e 4d 8a 0b bd
       -0.2616386 -0.16756521 0.24571435 -0.03406744
000080 93 d1 b7 b6 82 cf c4 b7 09 16 ab b7 fb 69 04 b8
       -5.4782226e-06 -2.346165e-05 -2.039505e-05 -3.1569954e-05
000090 10 66 02 b8 bc 62 fc b6 f5 45 07 b5 89 06 8a b7
       -3.108947e-05 -7.5216794e-06 -5.039322e-07 -1.6453925e-05
0000a0 51 ee 2d b7 fc ee 45 b7 35 fe a5 b6 9d 9b 67 b6
       -1.0367091e-05 -1.1797758e-05 -4.946977e-06 -3.4512261e-06
0000b0 d1 00 63 37 4c 46 49 b7 f3 02 6c 36 d4 92 a7 b7
       1.3530444e-05 -1.1996901e-05 3.5168457e-06 -1.9976324e-05
0000c0 39 5f 34 bd ee 59 78 bd f5 6d 8e 3e 3e d3 0b be
       -0.044036124 -0.06063264 0.27818266 -0.13654801
0000d0 08 c1 71 bd d4 c1 91 be b9 44 2a bd 68 fe dc bc
       -0.05902198 -0.28468192 -0.041569445 -0.02697678
0000e0 fc 61 56 bd eb 6f f1 3c 74 5c a8 3c 06 ef f8 be
       -0.05233954 0.029472312 0.020551898 -0.4861986
0000f0 b2 5e 62 3f 73 db f3 bd 48 41 78 bd 9c ef 39 bd
       0.88425744 -0.11907091 -0.060609132 -0.045394525
000100 10 93 26 bc f0 52 16 bf 9b 8d 95 bc ac c5 2f 3e
       -0.010166898 -0.587203 -0.018256 0.1716525
000110 95 4e 8c bd e9 e5 a4 3d 29 40 0f be 54 45 ca 3d
       -0.06850926 0.080516644 -0.13989319 0.098765045
000120 8f 4e 54 bd 48 41 0a 3c bb c7 d7 3d a6 83 5d 3e
       -0.05183273 0.008438416 0.105361424 0.21632251
000130 01 ed d6 bc b9 ae e9 3d be 9d 83 3d 64 b7 93 3d
       -0.02623606 0.11410279 0.06426571 0.07212713
000140 7f 96 e2 3e 9b 46 a3 3c d1 f4 eb bc b9 d5 10 3e
       0.44255444 0.019931128 -0.028803261 0.14144029
000150 8c 2f 9d 3c 44 17 e8 3c f6 34 b5 3c 2a ea 3c bd
       0.019187711 0.028331406 0.02211998 -0.046121754
000160 47 f1 70 3d 41 d6 ae 3c 91 aa fc 3d f9 30 df 3c
       0.05882385 0.021342399 0.123372205 0.027245032
000170 cf 9b 41 bd 98 cb c2 3c b4 c9 f9 be 51 00 fe be
       -0.04726773 0.023778722 -0.487867 -0.49609616
000180 78 11 7e bc ed dc 95 3e 29 35 99 3e 09 1c d3 bc
       -0.015507095 0.29270115 0.2992337 -0.025770204
000190 00 50 02 3e 0b 48 f1 3d 9c 46 af be 4f ae 70 3d
       0.1272583 0.11781319 -0.34233558 0.058759984
0001a0 c1 ee f8 3d 30 43 04 3e 9b fc 3c 3e ff fd ea bc
       0.12154914 0.12916255 0.18455736 -0.028685568
0001b0 a4 70 47 be b2 a3 06 3d fa 57 e9 bc 8e 10 73 bd
       -0.19476563 0.032870956 -0.028484333 -0.05934196
0001c0 5a 71 28 35 05 9c 88 36 4b 92 0d 36 21 23 06 36
       6.2749825e-07 4.071279e-06 2.109579e-06 1.9988004e-06
0001d0 f8 fa 8e b5 78 85 bc 36 3a 80 ce b4 bb c4 21 34
       -1.0652866e-06 5.6183744e-06 -3.8463787e-07 1.5065864e-07
0001e0 72 69 ef 35 5e c0 44 35 36 77 82 b4 97 bb 28 34
       1.7837576e-06 7.329562e-07 -2.4301124e-07 1.5714464e-07
0001f0 93 ed 95 36 89 0d e9 35 14 34 83 36 94 10 28 36
       4.4682033e-06 1.7363792e-06 3.910167e-06 2.50436e-06
000200 d6 2f bd 3d e0 7c 06 3e 5e 2d a4 bc 4e 6e d1 ba
       0.092376396 0.13133574 -0.020041164 -0.0015978308
000210 75 88 2f be f7 5a 9a be d6 fb 17 3e 84 af 89 bd
       -0.17141898 -0.30147526 0.14842162 -0.0672293
000220 a2 c5 24 be 3e 01 54 3e 75 40 63 3e 08 b7 98 3e
       -0.16091016 0.20703599 0.22192557 0.29827142
000230 e2 46 77 3e 5c b9 33 be d0 bf 3a bd 2e b1 a9 3c
       0.24148133 -0.17551178 -0.045593083 0.020714369
000240 23 6d b0 bd 3d ea c7 3d ec 14 48 bd 4d bb 1d 3c
       -0.08614566 0.09761474 -0.048848078 0.0096271755
000250 7c 61 68 3b 40 b1 55 3e 6f 98 ed 3d d1 f9 2e 3e
       0.0035458496 0.20868397 0.1160134 0.17087485
000260 00 8a 11 3e 6a c0 87 3e 52 6f f3 bd 0a 50 95 3e
       0.14212799 0.26513988 -0.11886467 0.29162627
000270 c0 bb d2 3c 00 c5 2e 3d 3f fb 8c bd 03 b0 23 bd
       0.025724292 0.042668343 -0.06883859 -0.03996278
000280 25 bd 76 be ae f1 1d bd 22 07 dc bd 28 f8 47 be
       -0.2409559 -0.03856056 -0.10743548 -0.19528258
000290 22 96 97 bd cd d6 bd be 06 c3 ed 3c 72 7c 8e bd
       -0.074016824 -0.37077942 0.029023658 -0.0695733
0002a0 36 a1 44 bd 54 01 d1 3c d1 15 5d 3e 44 8f eb 3d
       -0.048005305 0.025513329 0.21590354 0.11501935
0002b0 ff 63 69 be 2b 63 0b 3e cf 0e ea bd 9c 09 8a be
       -0.22792052 0.13612048 -0.11428606 -0.26960456
0002c0 0f d8 a1 ba a6 64 dd 3a 66 3b 05 3b 04 1d b9 38
       -0.0012347716 0.0016890957 0.0020329594 8.826892e-05
0002d0 43 e6 8a 3a e4 36 0d ba ea 72 89 3a 29 c6 95 b8
       0.0010597188 -0.00053869025 0.0010486518 -7.141784e-05
0002e0 71 e1 28 ba a6 77 42 3a 9e 24 e7 38 6d 49 0c 3a
       -0.0006442285 0.00074183417 0.00011021759 0.00053515175
0002f0 3b 6f 8b 39 9b 99 91 ba 43 8e 37 ba 1f 91 31 ba
       0.0002659502 -0.00111084 -0.00070020946 -0.0006773639
000300 6b 6b 69 34 d8 bb e4 b5 59 59 81 b6 24 53 d1 b4
       2.1738894e-07 -1.7041993e-06 -3.854901e-06 -3.8989776e-07
000310 6b 83 9c b4 59 b3 65 35 f2 0d 93 35 11 76 2c 36
       -2.9152883e-07 8.5570133e-07 1.0956412e-06 2.569872e-06
000320 cf bf 65 b6 05 c3 2a b4 20 d6 0b b5 4d 11 84 35
       -3.4235306e-06 -1.5903431e-07 -5.209313e-07 9.839802e-07
000330 2c da 91 b6 1f e4 a4 36 0c a2 6f b6 96 6a 6c b6
       -4.3467353e-06 4.9141377e-06 -3.57081e-06 -3.5228782e-06
000340 53 3d 63 ba cf 11 27 3e fa 7c 1b be d8 fe 92 3d
       -0.0008668501 0.16315387 -0.15184394 0.07177514
000350 38 70 ab 3e 73 51 2d 3e b0 f1 0c bf cf 7f 2d 3c
       0.33484054 0.16925602 -0.55056286 0.010589554
000360 b9 77 55 be 2a f7 d9 3d 07 5b 33 3e d1 0d 35 bd
       -0.20846452 0.10642846 0.17515193 -0.04420263
000370 93 b3 68 3d 21 12 0a 3f 11 da df 3c 3a 27 9b bc
       0.05681188 0.5393391 0.027325662 -0.018939603
000380 d0 be 16 be 06 2a 67 3d 67 62 ea 3d 3a d9 90 bd
       -0.14721227 0.05643656 0.1144455 -0.07072683
000390 ae 8b 1b 3d 23 3c 36 3e 18 ef dc bd 73 0d 7d 3c
       0.037975006 0.17796378 -0.10787791 0.015445101
0003a0 fc 99 09 3e 6a 88 17 3f fc e9 5d 3e db d6 9a bd
       0.13437647 0.59192526 0.21671289 -0.07560512
0003b0 d2 47 81 be bd 1e 28 be eb af 40 be e1 dd 31 be
       -0.25250107 -0.16417976 -0.18817107 -0.17369796
0003c0 a7 2a 93 bc de a2 33 3e d6 ed d8 be 52 c2 94 bd
       -0.017964674 0.17542598 -0.42368954 -0.07263626
0003d0 19 72 d3 bd a8 5b b2 bd 92 14 57 3e af cc a3 bd
       -0.10324497 -0.08708888 0.2100394 -0.07998025
0003e0 f8 82 c4 bc 24 08 d6 bd 35 7b fd bd 3a 54 a5 be
       -0.023988232 -0.104507715 -0.123770155 -0.32290822
0003f0 43 bf d8 bd 36 f0 f3 bd 62 cd 6a 3d 4d 1a 73 bc
       -0.10583355 -0.11911051 0.057324775 -0.014837814

backbone.conv2.0.conv2b.0.conv1.weight f4 [16, 16, 1, 1]
000000 35 1a 15 3d 15 ca 08 bf 20 e8 01 3e 28 9f b4 3d
       0.036401946 -0.5343335 0.12686205 0.08819419
000010 f9 e7 08 be fd 11 b3 3c e1 3f be 3e 40 01 03 3e
       -0.1336974 0.021859163 0.3715811 0.12793446
000020 25 f7 3c 3d 7a dd dd bd aa 3a 16 be 75 77 6a 3d
       0.046134133 -0.10833259 -0.14670816 0.05724283
000030 b4 5c e6 bd 24 86 d4 bd 22 2b 5b 3d ce e6 42 bd
       -0.112481505 -0.10377148 0.05350793 -0.047583394
000040 a6 21 0f 3e 5f ef 3d bd 3c 92 b6 3c e2 88 f5 be
       0.1397768 -0.04637086 0.022286527 -0.47955996
000050 77 21 f5 bc 99 a7 1b 3d 85 5a a7 bd 58 d2 b8 3d
       -0.029923184 0.03800163 -0.08171562 0.09024495
000060 26 ee 87 bc fd 01 fc 3d 46 22 08 bf 14 26 ab bd
       -0.01659305 0.12305067 -0.531773 -0.08356872
000070 a3 86 14 3e 4f 1b 96 3c 52 d7 e2 3c c3 34 e4 3d
       0.14504485 0.018323569 0.027690563 0.11142876
000080 9d 1c 8a bd b9 1e 23 bf cf d9 bc 3e bb 9e ad bc
       -0.06743739 -0.63718754 0.36884925 -0.021193853
000090 32 8a f2 3d 34 06 7a bd ff 71 f2 3d 8d 38 12 be
       0.11842765 -0.061041072 0.11838149 -0.14279385
0000a0 b2 3e 21 3c 89 4f a0 3d aa 9f 41 3d 26 2e 89 3e
       0.009841608 0.0782767 0.04727141 0.2679302
0000b0 5b b4 c9 3b 6c 7f a3 bb 31 33 85 bb dd ea af bd
       0.0061555333 -0.004989555 -0.0040649404 -0.085897185
0000c0 9b bf 27 3d 44 26 cc 3d bb 98 0d be cd a4 c5 3c
       0.040954214 0.09968236 -0.13827793 0.024126435
0000d0 27 24 2b 3e 28 32 4f bc a7 4e 03 3f cc d4 61 3e
       0.1671301 -0.0126462355 0.5129189 0.22053832
0000e0 1a e2 41 be 4e 27 05 bc 88 af e7 ba 1e e6 17 be
       -0.18933907 -0.008127047 -0.0017676214 -0.14833876
0000f0 53 88 2d be e6 c0 89 be dd 90 90 bc fd 02 82 bd
       -0.16946535 -0.26904982 -0.017647201 -0.06348226
000100 62 82 74 3d 04 53 d2 3e 9b 00 92 be 30 08 6e bd
       0.059694655 0.4107896 -0.28516087 -0.058113277
000110 ab bd 0b be fc 58 a0 3c e4 f5 99 3e 1b 20 81 be
       -0.13646571 0.019573681 0.30070412 -0.25219807
000120 9b 9f c9 3d ae c5 31 be ee 56 09 be 0f b4 5b be
       0.098448955 -0.17360565 -0.13412067 -0.21455406
000130 f0 c3 ae 3c 9c e3 e9 bd f3 49 ac bd ad b8 64 3d
       0.021333665 -0.11420366 -0.08412542 0.055840183
000140 0f 9a c8 bc 93 fc 16 be 2a 56 24 be 81 33 6a bc
       -0.024487523 -0.14744787 -0.16048494 -0.014294506
000150 6c d3 99 3d 30 79 98 be 42 e7 02 3f 9b 4e 25 3e
       0.07511029 -0.2977996 0.5113412 0.16143267
000160 1d 8d f4 3c 9e 94 ba 3d f8 1b ba 3d 30 ea c2 be
       0.029852444 0.09110378 0.09087366 -0.38069296
000170 7d a0 d9 bd ca 1f 17 3e dc 88 a8 bc 82 2a 70 3c
       -0.10626314 0.1475822 -0.020573072 0.014658572
000180 e4 c1 63 be 87 81 ab 3d bb d4 40 3e a1 ea ea 3e
       -0.22241932 0.08374315 0.1883115 0.45882133
000190 ba 27 9e bd 03 d1 3c bc 67 eb 39 3d d7 bf 37 3d
       -0.07722421 -0.011524442 0.045390513 0.044860687
0001a0 38 fe cd bd d1 24 0b 3e 47 df 7e 3e 04 e8 94 3d
       -0.10058254 0.13588263 0.24889861 0.07270816
0001b0 84 de be 3d ff 68 3d bd a1 a8 31 bc d7 39 ef bd
       0.09319785 -0.04624271 -0.010843427 -0.11680954
0001c0 85 e3 65 bd d0 57 f1 bd 76 af d5 bd 90 c9 82 bb
       -0.056125183 -0.11784327 -0.10433857 -0.0039913133
0001d0 44 a0 2e bc d6 79 04 3f f0 8b e4 ba c6 25 6e bb
       -0.0106583275 0.51748407 -0.0017436724 -0.0036338433
0001e0 b6 69 49 3d 80 68 78 3c 8c 40 ce be 36 36 be bd
       0.04917308 0.0151616335 -0.4028362 -0.09287684
0001f0 13 8c 9d be 75 a6 45 3e d1 e4 88 bd 69 66 db bc
       -0.3077093 0.1930178 -0.06684268 -0.026782231
000200 0b f7 db bb 08 6f 43 bd 06 92 35 be 05 3d f6 bc
       -0.0067127994 -0.04771331 -0.17731485 -0.030058393
000210 d8 48 bc bd 25 90 48 be cd 5d 0f 3f f4 84 32 3e
       -0.09193581 -0.19586237 0.56002504 0.1743353
000220 7e a6 3c 3d 1d 4b 24 3e bd ed dc 3d 0d 2c c0 be
       0.046057217 0.16044278 0.107875325 -0.37533608
000230 19 aa b2 bd e1 06 87 3d f1 83 ca 3c 50 2d 2f 3d
       -0.0872385 0.06593109 0.024721118 0.042767823
000240 ad 3e 5e 3d 00 12 fd 3b 71 73 81 bc 2d 3b d2 3c
       0.05425899 0.007723093 -0.015802117 0.025662983
000250 c9 be 3d be 7d c8 d2 be 67 10 0b 3e fc 1f 6a be
       -0.1852981 -0.41168585 0.13580476 -0.22863764
000260 9a 6f 62 3a cc c5 3a 3e c5 c7 56 3e 26 a5 04 bf
       0.0008637846 0.18239516 0.20974644 -0.51814497
000270 b1 c6 39 3e cb bb 09 be 56 4b 3f 3e bb 85 e6 bc
       0.18142201 -0.13450544 0.18681082 -0.02813994
000280 33 17 fd bc 43 cf 95 3d 6c 0d 7f 3d 65 15 c1 bd
       -0.030894851 0.07314923 0.06226866 -0.09427909
000290 33 d2 1f 3e 64 71 6e 3f de 33 1f be 72 08 16 3e
       0.15607528 0.9314177 -0.1554713 0.14651659
0002a0 3e 18 3a 3b 8e 84 9b be 34 91 07 be f7 1e 37 bd
       0.0028395797 -0.3037457 -0.13238984 -0.044707265
0002b0 c9 df ea be 06 54 ee 3d ed fb 5d 3c 20 d2 33 3b
       -0.4587386 0.1163712 0.013548833 0.0027438477
0002c0 ba 22 80 3b 8c bb 53 bf 1f 52 1b 3f a0 85 0c 3d
       0.0039103897 -0.8270805 0.6067218 0.034307122
0002d0 4b 8b b7 3c 5d db ac bb 33 76 e6 3d 0e b1 41 bc
       0.022405287 -0.0052751736 0.112530135 -0.011821998
0002e0 f2 f5 5a 3c 25 c1 2b bd e3 b5 82 bb f9 58 f1 3e
       0.013364302 -0.041932244 -0.0039889677 0.47138193
0002f0 7c 62 75 3d 02 93 a0 bc 63 6d 81 bc ad f7 c9 bb
       0.059908375 -0.019601349 -0.01579923 -0.0061635585
000300 8a 5a b3 3b c8 d9 14 3f 3c fa 84 bd 0f 04 62 bb
       0.0054734396 0.5814481 -0.06493041 -0.0034487282
000310 32 dc 81 bd 0a 4b ed 3c c4 92 0f bf c7 78 92 bd
       -0.06340827 0.028966445 -0.5608332 -0.07151943
000320 bd 23 25 bc 90 8b 76 3d 58 c0 29 3d 11 4e 19 bd
       -0.010079321 0.06019169 0.0414432 -0.037427966
000330 9f 96 8b 3d 04 20 1e bc f3 56 b3 bb 31 f4 87 bb
       0.06815838 -0.009651188 -0.0054730116 -0.004148983
000340 d3 61 c7 3b 38 00 4c 3f 1e 75 40 be 01 ce 50 bd
       0.0060846596 0.79687834 -0.18794677 -0.05097771
000350 1d d2 87 be 8b 52 1e 3d 6d 0e 32 3d 30 2c e4 3d
       -0.2652749 0.038652938 0.04347079 0.111412406
000360 4e 42 36 be 51 91 66 3a 20 67 26 3e 83 be af be
       -0.1779873 0.00087954575 0.16250277 -0.34325036
000370 8e 00 c3 3d c6 5f c9 bd 78 26 b5 3d bb 59 96 bd
       0.0952159 -0.098327205 0.08845228 -0.073413335
000380 09 40 ff bb 6f 9a a9 be f2 c4 eb bd a9 bb ce 3d
       -0.007789616 -0.33125636 -0.11512174 0.10094387
000390 48 77 02 3e cc ad e7 3e 24 a2 2f be 38 f8 a1 3c
       0.12740815 0.45249784 -0.17151695 0.01977168
0003a0 7d 76 f8 3d 50 4c 87 3b ac fa 0e 3d 23 9a e3 be
       0.12131975 0.00412897 0.034907028 -0.44453534
0003b0 50 d4 13 3e 83 88 bc 3d 02 d0 48 3d d5 15 87 bc
       0.1443646 0.09205725 0.049026497 -0.016489903
0003c0 fd 58 34 be 88 d6 78 3c 28 58 3a 3e c3 ce ce bd
       -0.17612071 0.015187867 0.18197691 -0.100980304
0003d0 09 84 b5 3d a2 d5 49 bd 6e 52 27 be 33 3c bf 3e
       0.08863074 -0.049276 -0.16340038 0.37350616
0003e0 3b b1 29 bf 1a f5 92 3e b7 fc c6 3d b2 76 74 3e
       -0.6628606 0.28702623 0.0971617 0.23873404
0003f0 17 29 b6 3d 41 c5 fb be 72 b2 e7 3c 4c 7d 46 be
       0.08894556 -0.4917393 0.028283332 -0.19383734

backbone.conv2.0.conv2b.1.conv1.weight f4 [16, 16, 1, 1]
000000 f5 2a 0a b7 69 58 82 b7 ab 64 98 36 ce 95 ac b7
       -8.235443e-06 -1.5538377e-05 4.5416723e-06 -2.0573756e-05
000010 9f f2 80 b7 f6 21 15 b7 92 52 f6 35 d4 4c 59 35
       -1.5371768e-05 -8.888999e-06 1.8352459e-06 8.09506e-07
000020 be ab d2 36 05 f1 24 37 e6 37 97 b6 19 6a bc b4
       6.278481e-06 9.8312785e-06 -4.506658e-06 -3.5094925e-07
000030 3f c9 14 b7 cc dd db 36 fe 1b 08 37 76 c1 84 35
       -8.868344e-06 6.552529e-06 8.112749e-06 9.891071e-07
000040 b9 c8 df 3c a6 35 0a 3d 90 3f b1 bb 09 4e d7 bc
       0.027317392 0.03374257 -0.0054091886 -0.026282327
000050 55 85 15 bc 5a c5 d7 bb 5b 4f 81 3c e5 7b e1 3c
       -0.009126027 -0.0065848054 0.01578491 0.027524898
000060 6d 56 a7 bc ff a0 7f bf af 6b b9 3d 7a 39 50 3c
       -0.020426953 -0.99855036 0.09053742 0.012709016
000070 f5 31 1c 3c db bf ce bb e1 88 0a 3e 92 53 e2 bc
       0.009533395 -0.006309492 0.13528778 -0.02762774
000080 ae 6f ab 3c 40 d4 17 3c ee e8 23 bc 4e 2b 81 bc
       0.020927276 0.009266913 -0.010004265 -0.01576772
000090 72 d8 bb 3c ed 7c 42 bc ed e3 0c bd 72 cd 08 3f
       0.022930358 -0.011870605 -0.034397054 0.53438485
0000a0 63 3c 47 bd 33 e9 b5 3b ed ea 69 bf 67 87 5c 3c
       -0.048641574 0.005551481 -0.91374093 0.013460017
0000b0 b5 64 bd 3c 04 e4 dc 3b b2 11 30 3d d0 64 6f 3d
       0.02311931 0.006741049 0.042985626 0.05844575
0000c0 b8 5f cb bc b3 1f 11 3f 26 39 25 bc 70 db c0 bc
       -0.024825916 0.56688994 -0.010084426 -0.023542136
0000d0 6f 5b 2f bd 86 7e 04 3d 7f b6 53 bd 0d 35 4c bd
       -0.042811807 0.032347225 -0.051687714 -0.04985528
0000e0 08 c1 14 bb 42 fd 78 bd da 15 37 be ae c2 5c bc
       -0.0022698063 -0.0607884 -0.1787943 -0.01347415
0000f0 07 32 8c bb 65 2c 02 3d d1 c9 07 bf f1 7d 32 bd
       -0.0042784247 0.03178062 -0.5304232 -0.04357714
000100 c2 58 1c 3e ba 45 88 bd f5 dd 0e 3f 34 1f 77 be
       0.15268233 -0.06653924 0.5580743 -0.24132997
000110 ea 0a 5f 3e a0 5a 5a be d0 49 66 be 7d 87 cd 3c
       0.21781507 -0.21323633 -0.22489095 0.02508902
000120 77 7f 51 3e 77 f4 84 3d d9 e8 47 3d 1c 60 24 bf
       0.2045878 0.064919405 0.048806045 -0.6420915
000130 11 ad 0f be f1 c0 78 be 32 5a f6 3c 76 39 bc 3d
       -0.14030863 -0.24292351 0.030072305 0.09190647
000140 7a d5 c1 3e 96 21 62 bb f0 1d cd 3e 39 ca 6e 3c
       0.37858182 -0.0034504882 0.40061903 0.014574581
000150 1d 30 23 be 72 30 00 be 09 18 63 be b0 9b 12 3e
       -0.15936323 -0.1251848 -0.22177137 0.14317203
000160 6a ee d2 3e 26 93 36 bd d8 2f 90 3a f2 b8 b9 be
       0.4119752 -0.044573925 0.0011000587 -0.36273915
000170 a2 21 36 bd 91 0c 2a 3c dd c5 08 3b 8e 26 30 3e
       -0.04446567 0.010378973 0.0020869889 0.17202207
000180 81 a0 95 be b6 5d c5 bd 8d 15 9c be 88 25 7b 3d
       -0.29224017 -0.096370146 -0.30485192 0.06131509
000190 c1 2e b6 be 43 0c a1 bd b4 72 84 bd 20 e7 b8 bc
       -0.35582545 -0.07863667 -0.064671904 -0.022571146
0001a0 82 62 11 3d 52 1f 68 bd d0 17 9e bd c0 c1 a6 3e
       0.035494335 -0.056670494 -0.077193856 0.32569695
0001b0 0f e6 bf 3d d7 bb df 3d 17 1d 24 3d b3 47 af bc
       0.09370052 0.109244995 0.040066805 -0.021396494
0001c0 f9 e5 1c be d9 a7 26 3e 60 9c 06 3e 6e 8d cc be
       -0.15322103 0.16274966 0.1314559 -0.39951652
0001d0 da 85 50 3e 0a 71 d4 bd 66 0c a3 3e 7b 02 87 bd
       0.2036356 -0.10373123 0.31845397 -0.0659227
0001e0 b0 fe 30 be ec 42 15 bd 57 0f 56 3c 3c 65 84 bd
       -0.17284656 -0.036440775 0.013065181 -0.064646214
0001f0 f3 fb 2d 3d 91 54 33 bf e3 66 6b 3c 9b 39 00 3f
       0.042476606 -0.70050913 0.014367792 0.500879
000200 04 3a 39 3e ae 2d e0 3d 02 13 bd bd 33 cc 95 be
       0.18088537 0.10946213 -0.09232141 -0.29257354
000210 fa 8c ba bd 1f 09 59 bd 29 8c 4f 3d 3b 75 21 3e
       -0.091089204 -0.052987214 0.050670777 0.15767376
000220 c9 c2 ea 3e 3b 1c 56 bc cf c6 39 3e 19 45 f4 3d
       0.45851734 -0.013068254 0.18142246 0.11927242
000230 c9 4e a6 be 89 e0 a1 3d 57 c0 c4 3c 48 ce 9b 3d
       -0.32481983 0.07904155 0.024017496 0.076077044
000240 93 bc c2 3d 18 10 8c 3e 3c db 0f 3e 0c 6d 09 3d
       0.09508624 0.2735603 0.14048475 0.03355126
000250 ce 4e a2 3d 6e aa 2a 3d cc 62 00 3e b2 7a 8b 3d
       0.07925187 0.04166644 0.12537688 0.06810512
000260 b8 91 e5 3d a1 da 89 3e 75 c8 af bd a6 6c b3 3c
       0.11209434 0.26924613 -0.08583156 0.021902394
000270 3e 65 03 3d 74 d1 51 bc 88 cc 5e 3c 5b 53 2e bd
       0.032078974 -0.012806285 0.013598569 -0.042559963
000280 47 b5 10 bd c4 1f 38 be c9 b4 10 bc d9 66 74 bd
       -0.03532913 -0.17980868 -0.008832165 -0.059668396
000290 5d 9b 5a 3c 2c af e6 3c 23 28 c6 3e 73 cb 2f be
       0.013342706 0.0281597 0.38702497 -0.17167453
0002a0 95 bc 15 bd bb 53 6f 3d 87 62 1e be 47 82 d8 ba
       -0.0365568 0.05842946 -0.15467273 -0.0016518318
0002b0 68 8d 24 bc 52 80 0d bd 10 df 37 3f d6 73 bd bc
       -0.0100434795 -0.034546204 0.7182474 -0.023126524
0002c0 61 ff fc ba 13 9b e4 3d 18 c1 73 bd 03 ef 6f 3d
       -0.0019302183 0.111623906 -0.05951032 0.05857755
0002d0 ec 63 dd 3d 36 ca e9 3d 2c 2b dc 3d 28 82 69 3e
       0.10810074 0.11415522 0.10750422 0.22803557
0002e0 5a 8a 1e bd 7a d5 e4 3e 3a 81 e8 3d 0f af 33 3e
       -0.03870616 0.4469412 0.11352773 0.17547248
0002f0 75 4c 9e 3c 88 fd ba bd 91 05 db bd 9f be bb bd
       0.019323567 -0.091303885 -0.10694421 -0.091672175
000300 21 aa e0 3d 8d 46 b9 3c fe 12 80 3e c8 36 53 bd
       0.109699495 0.022616649 0.2501449 -0.051565915
000310 fe f6 86 bd 5f af d8 3e 95 47 e0 bb d8 b3 8f bd
       -0.06590079 0.42321298 -0.0068444707 -0.07016724
000320 a8 62 4e be 85 5c fc 3c 03 d3 91 bc 66 6e 55 be
       -0.20154822 0.030805836 -0.017800814 -0.20842895
000330 5e e8 16 bf ab 0e ef bc 05 83 c6 3c 3b d9 15 be
       -0.58948314 -0.029181799 0.024232397 -0.14633648
000340 8e 7d b7 3e 97 3d ff 3b 9a d4 1e 3e e0 b7 41 3e
       0.35837978 0.0077893245 0.15510789 0.18917799
000350 db fb 9f be 35 a5 d8 3e 56 f3 f1 3c 0c 7a 94 3c
       -0.31246838 0.42313543 0.029534977 0.018124603
000360 ea 6c 9e be f4 bc 51 bc 86 60 29 bd 85 ba 3b be
       -0.3094247 -0.012801398 -0.041351818 -0.1833287
000370 ec 5d 8a bd 58 93 27 3e 06 c1 dd bb 47 e0 bc 3d
       -0.067561954 0.16364801 -0.006767395 0.09222465
000380 47 dc 07 36 56 f5 7b b6 ad 5a 98 b6 4b 00 c1 34
       2.0244786e-06 -3.754472e-06 -4.540509e-06 3.5949265e-07
000390 06 8c 10 36 43 32 63 b3 72 55 03 b6 fe ff 8f 35
       2.1539176e-06 -5.289827e-08 -1.9570257e-06 1.0728834e-06
0003a0 ae 05 1d 36 5b f4 a1 33 07 9f 89 b6 35 74 a7 34
       2.339813e-06 7.541595e-08 -4.1014314e-06 3.1190726e-07
0003b0 23 fa 2e 36 f2 a0 0d 33 71 92 dc b5 59 55 0b b5
       2.607362e-06 3.29755e-08 -1.6433897e-06 -5.190573e-07
0003c0 c0 50 97 be 00 db f1 3d 77 05 94 bd a4 16 30 3e
       -0.29553795 0.11809349 -0.07227605 0.17196137
0003d0 1a 4f a1 be 93 35 ad 3c 07 31 a9 3d 52 45 42 3d
       -0.31505662 0.02114371 0.08261304 0.04742939
0003e0 d5 32 10 3d 3a 9d d0 3c 2f 75 0e 3d 1a 9e 27 3f
       0.035204727 0.025465596 0.034779724 0.6547562
0003f0 e5 f9 be 3d 05 7e 34 3e 18 39 c5 bc 15 8a 8f bd
       0.09325007 0.17626198 -0.024075076 -0.07008759

backbone.conv2.0.conv2c.0.conv1.weight f4 [16, 16, 1, 1]
000000 49 c2 c2 3d 2f 77 03 be 26 28 ff be 9f 5d 65 3c
       0.09509713 -0.12838434 -0.49835318 0.013999372
000010 46 00 03 3b ef 1d 0c be cd c8 ff be a0 c8 09 bc
       0.0019989177 -0.13683294 -0.49957886 -0.008409649
000020 17 7c bc 3d 7a ea 23 3d 67 91 57 bd 38 02 ab 3e
       0.09203356 0.040018536 -0.0526289 0.3340013
000030 33 a5 9f 3e ef 1c 4c 3d ec 7d d9 3c ff 77 2f bd
       0.31180725 0.04983228 0.026549302 -0.042839047
000040 81 de 7b bc fc e1 b7 3d ae 7e b1 3e c4 a1 0c be
       -0.015372873 0.0897865 0.3466696 -0.13733584
000050 fb 96 1f 3e 4f e0 10 be 6e 42 16 3c 73 1c 23 3e
       0.15584938 -0.14148067 0.0091711115 0.15928821
000060 f9 5e 1b bc 4c 37 e5 3e 6c 4c 63 3e f1 97 26 be
       -0.009483092 0.4476875 0.22197121 -0.16268899
000070 35 1e 6f bd e7 15 df 3d 6c 60 25 bd 13 8c 0a bd
       -0.058378417 0.108928494 -0.04037516 -0.03382499
000080 10 ec 11 bd 67 cc 77 bd 43 16 bb bc 67 09 62 bd
       -0.035625517 -0.060497668 -0.022837764 -0.055184748
000090 89 7d ff bd a5 a0 c0 bd 7e af 49 3d f7 e9 12 bf
       -0.12475116 -0.094056405 0.049239628 -0.5738825
0000a0 85 42 f6 bc 4b 8c 7d 3d 50 66 20 bb 49 26 32 bd
       -0.030061016 0.061901372 -0.0024475046 -0.043493543
0000b0 4c 10 d1 3c e4 94 6f be d8 06 14 3d eb 14 a5 3d
       0.025520466 -0.23396641 0.03613934 0.080606304
0000c0 f8 cd 4e bb 34 98 1c bf 49 bd 8a 3e cb d8 a5 bc
       -0.0031555872 -0.61169744 0.27097538 -0.020244977
0000d0 a2 75 45 be b3 19 c9 bc 70 90 2b 3f 16 cb 9a 3e
       -0.19283155 -0.024548387 0.6701727 0.30233067
0000e0 12 6f b1 3e 90 82 dd 3c e7 ad 1d bd 44 e3 bf bd
       0.34655052 0.027039796 -0.038495924 -0.09369519
0000f0 d0 5b 98 be 1f d3 94 3d 5f bb 6b bc 0c 54 27 3c
       -0.29757547 0.07266831 -0.0143879345 0.010212909
000100 f3 8c cb 3d 00 48 ce bd 17 dc 96 3c b9 41 81 3d
       0.09938993 -0.10072327 0.018415494 0.06311364
000110 ca 14 22 3d 80 e8 ae 3d c4 c6 8d 3e 1b c1 13 be
       0.039570607 0.085404396 0.2769071 -0.14429133
000120 95 52 89 be 56 79 11 be 34 27 0c be 9b a6 90 bc
       -0.26820818 -0.14206442 -0.1368683 -0.017657569
000130 17 29 05 bd 62 c2 c6 bc cf fe d5 3d f3 9e d0 3d
       -0.03250989 -0.02426261 0.104489915 0.10186567
000140 98 8d 8f bb ac af 27 be 44 6b 13 be e0 28 26 3e
       -0.004380893 -0.16375607 -0.14396387 0.1622653
000150 df 46 5f bd 83 75 03 3e 29 ae 66 3e 24 17 b3 bc
       -0.054510947 0.12837796 0.22527374 -0.02186162
000160 2b a7 4b 3e 14 46 11 3d 3c 3a e4 bd f5 41 29 be
       0.19887988 0.035467222 -0.1114392 -0.16529067
000170 55 59 38 3e 67 9f bc 3e 46 66 f9 3c ee 96 3c 3b
       0.18002827 0.36840364 0.030444276 0.0028776485
000180 ed 5e 2d bc 83 a7 d6 3e a3 12 2c be 69 74 8c 3c
       -0.010581714 0.41924676 -0.16803984 0.017145352
000190 aa d0 88 3d 9a 57 92 3d 85 05 7e bf de ba 41 bb
       0.066804245 0.07145615 -0.9922717 -0.0029560844
0001a0 5b 86 17 3d 78 87 45 3d a5 4c 2d bc 7b ea ad 3e
       0.036993366 0.048224896 -0.0105773555 0.33967957
0001b0 9f 54 84 3e 50 b2 dd 3d bf 05 61 3b f8 c2 87 39
       0.2584581 0.10825026 0.00343357 0.0002589447
0001c0 e6 3b c8 bc 01 27 32 bf 32 f9 09 3f 85 bd 6b 3d
       -0.024442624 -0.69590765 0.53895867 0.057553787
0001d0 49 a3 89 3e eb 67 62 3d 35 bf d2 be 58 6d 23 3e
       0.2688239 0.055274885 -0.41161504 0.1595968
0001e0 08 0e 3a be 50 48 f3 3c a9 ef fe 3c 0f df 26 3f
       -0.18169415 0.029697567 0.031120138 0.6518411
0001f0 34 70 a4 3e 6b 9f 1d bd 35 48 ca bc 46 d5 bb bb
       0.32116854 -0.03848211 -0.024692634 -0.0057322113
000200 65 4a 43 bd 30 51 ba 3e 4e fb 92 3d c6 d6 ba bc
       -0.04767837 0.36390066 0.07176839 -0.02280749
000210 39 08 cf bd 03 15 97 bd c6 aa 08 bf 9b 51 af bd
       -0.1010899 -0.073770545 -0.5338558 -0.08560487
000220 43 b5 0a be b4 e8 a4 3d 0f 4f 4c ba 9d c7 31 3e
       -0.13545708 0.08052197 -0.0007793763 0.17361303
000230 12 53 98 3d 06 87 10 be c8 3d 7d 3d f1 b8 49 3c
       0.074377194 -0.14114007 0.061826497 0.01231216
000240 fb e1 9d b5 16 02 f4 37 8d dd 4c b8 56 75 69 37
       -1.176318e-06 2.9088038e-05 -4.8843725e-05 1.3915202e-05
000250 bf 99 44 b6 50 9d e0 b6 db 8e 18 38 d2 36 3d 37
       -2.9295768e-06 -6.694034e-06 3.637267e-05 1.1278042e-05
000260 72 a4 1c 37 c2 f4 54 b5 67 9a 07 b7 e3 40 6a b8
       9.3366125e-06 -7.9332324e-07 -8.082577e-06 -5.5850378e-05
000270 04 69 77 35 eb 4b cc b6 e6 53 35 b5 55 f9 0a 37
       9.216749e-07 -6.088512e-06 -6.754984e-07 8.283493e-06
000280 b2 b4 a2 3b ac e9 3c be d7 5c 20 be ec 47 0a 3c
       0.004965388 -0.18448514 -0.15660416 0.008439999
000290 30 22 92 be 16 6b 0d be ad 3b 2e 3f 1f 33 0b 3e
       -0.28541708 -0.13810381 0.6805981 0.1359372
0002a0 ad 7f f0 3e 90 fb d3 3d c6 5e e4 3c fc 45 aa be
       0.4697241 0.10350716 0.027877223 -0.3325652
0002b0 fe 41 3c be 98 b5 c8 3d 2e fb b5 bb 19 ab 3a bd
       -0.18384549 0.09800261 -0.0055536246 -0.045573328
0002c0 a6 fb 30 bc 1b 92 ea bc df ef 02 3e a8 31 5e be
       -0.010802185 -0.028634122 0.12786816 -0.2169863
0002d0 96 b3 8e bd 6f aa ab bd 90 ac 37 be a7 b7 3a bd
       -0.06967847 -0.08382117 -0.17936921 -0.0455853
0002e0 15 5c 34 be 57 1a c5 bd e1 aa b6 bc 97 3b 10 3e
       -0.17613252 -0.096241646 -0.022298278 0.14085232
0002f0 1f 30 50 be 2a 05 b9 be 68 e7 48 3d 75 d8 eb 3c
       -0.20330857 -0.36136752 0.04904881 0.028789738
000300 c1 7f 0d be 5f b4 09 3d fd de c7 3d 73 07 51 bd
       -0.13818265 0.03361928 0.097593285 -0.051032495
000310 42 60 fd 3e 70 4a a4 bd b1 e6 eb bd b7 ca bd bc
       0.494875 -0.0802201 -0.1151861 -0.023167951
000320 8e ea cf 3e d2 0a 0b 3e 44 b2 a1 3d b9 e9 e0 bd
       0.4060864 0.13578346 0.078953296 -0.10982079
000330 87 76 3b be f5 4f 03 bd 17 78 dc bc 56 5c a6 bd
       -0.18306933 -0.032058675 -0.026912732 -0.081230804
000340 08 d5 98 bd e2 aa 38 3e f3 db d5 bd e1 df 7b 3c
       -0.074625075 0.18033937 -0.104423426 0.015373201
000350 2d 37 37 bd cf 70 35 be ed 19 a8 be 32 48 d0 bd
       -0.044730354 -0.17718814 -0.3283228 -0.1017002
000360 4a a4 d4 bd e7 ca 3b 3d cf 78 1e 3e cb 2c bc 3e
       -0.10382898 0.0458478 0.15475772 0.36752924
000370 8d 86 c6 3e 84 cb c9 bd 88 de b4 bc b2 7f 1e bc
       0.3877453 -0.09853271 -0.022078767 -0.009674
000380 38 31 a7 3c a7 c9 5c 3e 0e 4f 18 3e eb 91 93 3b
       0.020409212 0.215613 0.14873907 0.0045034788
000390 2b 34 93 3e 48 0b d1 3c 03 cb 42 bf 2c 51 1f bd
       0.28750739 0.025518075 -0.7609102 -0.03889577
0003a0 76 b1 b0 be 6b 27 d2 3b 40 69 05 bc 40 56 03 3e
       -0.34510392 0.0064133904 -0.008142769 0.1282587
0003b0 0f 67 7f 3d 3a 83 3a 3d 99 2b 16 bc 54 4e 6e 3b
       0.062354144 0.045535304 -0.009165668 0.0036362605
0003c0 f4 84 43 bd c9 78 f3 bd 34 4d 08 bd 6e 77 ab bb
       -0.047734216 -0.11888272 -0.03327675 -0.005232743
0003d0 ce eb ad be 94 1b cf bd c7 25 01 3f 44 a5 49 3d
       -0.33968967 -0.10112682 0.5044827 0.049229875
0003e0 d8 33 a6 3e 85 f6 19 bb 13 a5 3e bd 47 ee c3 bd
       0.3246143 -0.0023492884 -0.046544146 -0.09566932
0003f0 1b 5a d7 bd 5f 8a 82 be 53 64 1a bd 88 b9 8a 3c
       -0.10515233 -0.25496194 -0.037693333 0.016934171

backbone.conv2.0.conv2c.1.conv1.weight f4 [16, 16, 1, 1]
000000 a8 29 3a bd e9 24 69 3e 43 25 96 bc 5c 32 0f bb
       -0.045449883 0.22767986 -0.018328315 -0.0021850085
000010 a1 de 27 be 99 2f 5f be ed 7e 79 bc 84 9a b6 3c
       -0.1639352 -0.21795501 -0.015228015 0.022290476
000020 c7 74 42 be 13 e1 5c b8 5d 91 1d 3d d4 61 f0 3d
       -0.1898986 -5.2661704e-05 0.038468707 0.11737409
000030 26 a6 47 bf 70 22 86 bd a5 e8 5e bb 54 07 77 3d
       -0.779879 -0.06549537 -0.0034013179 0.060309723
000040 3d 02 06 3f a3 35 7a 3c f6 98 0c 3c 4e 2e b5 bd
       0.52347165 0.015271577 0.008581391 -0.088467225
000050 03 bf c5 3c dc f2 23 bd 61 7c 80 bd 48 20 e5 3b
       0.024138933 -0.04002653 -0.062737234 0.0069923736
000060 80 b3 6e be 97 6a 74 38 5c 21 ea bd c0 a1 7b bd
       -0.23310661 5.8273403e-05 -0.11432144 -0.061433554
000070 00 f9 9e 3c 80 d6 c7 be 47 28 16 3c 13 2e 1f 3d
       0.019405842 -0.39030838 0.009164876 0.0388623
000080 e3 df cc be 1b e7 1a 3d dd 53 38 3c 21 9a 72 3d
       -0.40014562 0.037818056 0.011250463 0.05922902
000090 1a 23 ef bc 31 15 2e 3d 91 04 cf 3d 61 a3 c0 3c
       -0.029191542 0.04250068 0.10108293 0.023515405
0000a0 f3 f0 06 be 9c fb 10 b8 3f b9 f8 be 6b ae 07 3d
       -0.13177852 -3.4566605e-05 -0.48578832 0.033125322
0000b0 e5 e1 f9 bc e2 0a 27 be 08 90 2b 3e 3e 33 c2 be
       -0.030503223 -0.16312745 0.16754162 -0.3792972
0000c0 9e e9 f3 3b 3f 2b 87 3c 88 24 77 bb 98 f7 5e bf
       0.007443621 0.016500114 -0.0037710983 -0.8709655
0000d0 03 f9 29 bd c7 15 d1 3d 7f 1e 0f 3f 51 3e 8b 3d
       -0.04149724 0.10209232 0.5590591 0.06798995
0000e0 6b 6b 03 bc 44 4e 3a b8 e7 fe 15 3b 48 ff 20 be
       -0.008021216 -4.4418746e-05 0.002288753 -0.15722382
0000f0 a1 dd 87 3c fe 19 f7 bc 16 ce a1 3c 0b f8 0e 3c
       0.016585173 -0.030163761 0.01975159 0.00872613
000100 ff 70 af 3c cf b8 f3 3d b3 e8 4f bc 65 0c a8 3e
       0.021416185 0.11900484 -0.012689757 0.32821956
000110 55 17 e0 3c 1d d2 99 3c 4b 36 93 be 2f f7 63 bf
       0.027354876 0.018776948 -0.2875236 -0.8904905
000120 1c d6 7b bc 54 0c e5 35 3c 71 e9 bc bb e5 90 3d
       -0.015370872 1.7065418e-06 -0.028496377 0.070750676
000130 d1 c9 b3 bb 21 74 cf bc 6a 1a d8 bb aa 60 83 bb
       -0.005486705 -0.02532393 -0.0065949457 -0.004009326
000140 74 98 70 be 55 a5 f5 3d 0a 04 26 be 35 f4 2f bc
       -0.23495656 0.11994425 -0.16212478 -0.010739376
000150 d3 2f b6 be d0 70 8d be ad b9 07 3d b2 de 2e bb
       -0.35583362 -0.27625132 0.03313606 -0.002668303
000160 d1 65 de bd 56 a1 08 36 fa a0 fe be c8 2a d7 bd
       -0.10859264 2.035949e-06 -0.4973219 -0.10506207
000170 d6 c0 99 3d 3d 63 97 bd 16 08 50 3e 5d c8 81 3e
       0.07507484 -0.07391975 0.20315585 0.25348178
000180 25 6c 66 3e 0c 4d d7 3d aa 96 00 bd 5f bc 47 3d
       0.22502191 0.105127424 -0.031393684 0.04876363
000190 8e b3 2c be a2 04 bc bd 60 bb 4f 3d 77 6a f4 3c
       -0.1686537 -0.09180571 0.050715804 0.029835923
0001a0 3e 98 1c be 6d b9 0d b7 1b 42 16 3f 6a 73 9b 3b
       -0.15292451 -8.447428e-06 0.5869462 0.004743983
0001b0 5e 3e da 3c 58 83 dd be 00 f0 b6 be d2 d6 31 bc
       0.026641067 -0.4326427 -0.3572998 -0.01085444
0001c0 51 2d 07 be 3a bc 64 bc 7a 7b 0f 3e 6c 64 f0 bd
       -0.1320088 -0.013960892 0.14011946 -0.11737904
0001d0 de f6 1e 3d e8 78 9f 3d ab 5d 0d bd 45 83 d0 3c
       0.03880965 0.07786733 -0.034513157 0.02545322
0001e0 00 9a a4 3e 72 cf 2b 36 4c d3 83 bd f4 cf 03 be
       0.32148743 2.5601735e-06 -0.06436786 -0.12872297
0001f0 34 6d 3c 3d 1e 66 68 3d 3e f2 36 be 23 f0 95 be
       0.04600258 0.05673801 -0.17865846 -0.29284772
000200 3e c9 08 3c 5f 54 a4 bd 8d db e9 bc a8 61 93 3c
       0.008348761 -0.08023905 -0.028547073 0.017990902
000210 73 f9 bc bd ce 69 8b bc 88 78 d0 3c 7d 95 0d 3c
       -0.09227266 -0.017018225 0.025448099 0.008641598
000220 3d 26 5b bd 45 ef 97 37 61 4a 39 be a1 c4 0e 3d
       -0.053503264 1.8112021e-05 -0.1809478 0.03485549
000230 dc 5b eb 3b c9 af 77 3d ef 72 ca 3e 83 8a 06 bd
       0.0071825814 0.060470376 0.39540812 -0.03284694
000240 d8 fc 6d bd a1 79 d9 bd 76 37 1b 3f 9e 26 80 3e
       -0.05810246 -0.10618902 0.606315 0.25029463
000250 53 71 3a bd 3e 6d 70 3d 84 7f 7f bd 86 61 09 3e
       -0.04551823 0.05869793 -0.062377468 0.13416108
000260 88 9f 54 bc 8b 58 bd b7 a4 48 18 bc 97 f3 dd 3d
       -0.012977488 -2.2571787e-05 -0.009294663 0.10837477
000270 74 27 09 3e c1 eb 88 bc 61 bd 8b 3d c8 ec 98 3d
       0.13393956 -0.016713979 0.068232305 0.074670374
000280 87 33 d8 bc f4 2a 87 be 5d 07 93 3d 8b ec ac 3e
       -0.026391758 -0.26399958 0.07179139 0.33774218
000290 b2 64 7b bd 67 21 09 3e f3 91 51 3e 6a ca 1a 3f
       -0.061375327 0.13391648 0.20465831 0.6046511
0002a0 2a d8 91 bd 2b a2 06 38 71 8b b2 ba 4f 0e 5b bd
       -0.07121308 3.209912e-05 -0.0013621879 -0.053480443
0002b0 78 31 28 bd ea 59 47 bc c4 d0 55 b9 b7 6c 14 3e
       -0.041062802 -0.012167433 -0.00020391034 0.14494596
0002c0 67 ad eb 3b bf 70 da be 82 c8 66 3c bc 9b 4a 3e
       0.007192302 -0.42664143 0.014085891 0.1978597
0002d0 90 7f e6 bd 86 7a 55 be 95 7a c8 3d b9 35 aa bd
       -0.11254799 -0.2084752 0.09789006 -0.08311028
0002e0 33 5f 8e bd 83 98 5f 38 13 fd 21 3e d4 63 de 3e
       -0.069517516 5.330938e-05 0.15819196 0.43435538
0002f0 a2 a0 84 3e d1 cc 82 bd f6 44 84 3e f6 bb de 3e
       0.25903803 -0.06386722 0.25833863 0.43502778
000300 f2 37 f3 3c 17 aa 05 3b 06 c8 bd 3d 70 f8 ef 3e
       0.029689763 0.002039557 0.09266667 0.4686923
000310 12 b2 db 3c f0 b8 bb 3c 2f 48 a6 be c9 ae 3d 3f
       0.026818309 0.022915334 -0.32476947 0.74094826
000320 1e 8f fc bc 23 e3 3e b6 0e 91 92 bc 6e ce bf 3c
       -0.030829962 -2.8444417e-06 -0.017891433 0.023413863
000330 0a c7 a7 3c 05 d7 8b bc 59 6d d5 bb 9a c9 b3 bd
       0.020480651 -0.017070303 -0.0065132794 -0.08778687
000340 17 c1 fe 3d 35 83 ae bd d5 5a 24 bd 12 4d 6a bb
       0.12439173 -0.085211195 -0.040125687 -0.0035751504
000350 e2 19 bd 3e b2 bb 2c bd b4 40 74 3d 87 69 1e bc
       0.3693381 -0.042171188 0.05963202 -0.009668714
000360 e1 fb 09 be 69 61 f5 36 bf 9f bc 3d 3a 2b 99 bd
       -0.1347499 7.312909e-06 0.09210157 -0.07478948
000370 ba 69 09 3d 5a 3a db be 45 ed 12 bf 36 ce de 3d
       0.033548094 -0.42817956 -0.57393295 0.10879175
000380 ba ab 12 3d 03 2b 2f 3e d4 c9 10 3d 2e 84 bf 3d
       0.035808302 0.17106251 0.03534873 0.09351383
000390 58 a1 3a bc 51 2b d1 bd 21 f6 46 be a5 c8 12 bd
       -0.011391006 -0.1021334 -0.19429828 -0.03583588
0003a0 6c 3d a7 3e fe 83 bb 34 49 c3 04 3d f6 00 da 3d
       0.3266405 3.49275e-07 0.0324128 0.106447145
0003b0 60 d9 e5 3d 74 f0 02 3e 7f 29 8c bd ae 17 f1 be
       0.112231016 0.12787038 -0.06843852 -0.4708838
0003c0 e0 8c 84 bc c6 d5 84 3e bc e6 f7 3c 37 9c fa 3d
       -0.016180456 0.25944346 0.03026139 0.12236827
0003d0 b8 e8 9b 3d e8 30 8a be 6c 23 49 bf dc 05 2a be
       0.07612747 -0.26990438 -0.78569674 -0.16603798
0003e0 52 86 29 3d 3e 95 86 37 ac 6a 91 bc 48 44 67 be
       0.041387863 1.6043541e-05 -0.01775106 -0.22584641
0003f0 68 d2 d0 3c 5a 14 ea bc 38 9b ee bc 2a 54 eb 3d
       0.025490955 -0.028574158 -0.029126748 0.114906624

backbone.conv2.0.conv2c.2.conv1.weight f4 [16, 16, 1, 1]
000000 1c 90 f7 3d f0 76 09 3f a0 56 27 be 17 24 f2 3d
       0.120880336 0.5369711 -0.16341639 0.1182329
000010 42 93 04 3e 38 4f 9b 3d 87 3d 50 3e 9b b2 7a 3e
       0.129468 0.07583469 0.20335971 0.24482195
000020 d5 d3 a5 3e 0b 52 48 bd 4b cb 41 be 6e cd 47 bc
       0.32388178 -0.048906367 -0.18925206 -0.012194974
000030 6d da e2 3c ac 61 d5 3e 35 b9 91 3e b4 10 69 3d
       0.027692044 0.4167608 0.28461614 0.056900695
000040 51 00 9e bc 91 51 7c bd af 07 a4 3d d3 2f 58 3f
       -0.01928726 -0.061601225 0.08009278 0.84447974
000050 e6 cc 31 3f e3 68 d2 bd 1f a1 10 3d 76 46 14 bd
       0.69453275 -0.10273912 0.035309907 -0.03620001
000060 14 24 dd bd 63 79 f8 bd dd 74 b0 bd 55 3c 3a be
       -0.10797897 -0.12132528 -0.0861604 -0.18187077
000070 ef b0 4d 3f b0 14 09 bc 9e a1 2b 3d 77 2b 3f bd
       0.80348104 -0.008366749 0.041902177 -0.04667231
000080 7b 30 dd be b6 de 4a be 66 02 ec 3d a6 e4 b8 bc
       -0.4320105 -0.1981152 0.11523895 -0.022569966
000090 a4 5a 7c bd 93 a6 fb 3c fd 49 a9 bd 49 bd a9 bd
       -0.06160988 0.030719077 -0.08266065 -0.082880564
0000a0 5d 2b 53 3e e7 d2 bc be bb 8e 9a 3d a9 d6 f4 bc
       0.2062201 -0.36879656 0.07546755 -0.029887514
0000b0 64 80 a7 3d 6d 16 10 be 01 9d af 3d d3 63 07 3d
       0.081787854 -0.14071055 0.08574868 0.033054184
0000c0 34 c7 c1 37 a7 cf 5c b6 5c 29 0f 37 a5 73 9b 35
       2.3100154e-05 -3.2903424e-06 8.533094e-06 1.1582057e-06
0000d0 d9 1b a9 36 64 31 6f b7 39 68 15 b7 8b df dd b7
       5.0398344e-06 -1.425701e-05 -8.905358e-06 -2.6449348e-05
0000e0 c0 4c da b6 73 50 a8 b7 e1 a6 0b b7 37 07 1a b7
       -6.505841e-06 -2.0064623e-05 -8.3239e-06 -9.180795e-06
0000f0 01 70 9f b5 84 7b 4b 36 e8 9b 40 b7 4b 3b 8c b5
       -1.1879021e-06 3.0321253e-06 -1.1480392e-05 -1.0448069e-06
000100 e3 32 36 be c1 8d 14 3d ae 7a 19 bc 38 05 14 3e
       -0.17792849 0.036268 -0.009367628 0.14455116
000110 30 f0 bd 3d c6 b0 2a bc 80 ac 0b bd f1 08 25 bb
       0.09274328 -0.010418123 -0.034100056 -0.0025182331
000120 41 ff 80 bd ee e1 e7 3d 13 78 40 3f 9c 90 e6 be
       -0.06298686 0.113223895 0.7518322 -0.45032203
000130 6a 1b a5 bd c8 f6 19 bd 0a 7f ae 3c 88 39 2a bb
       -0.080618694 -0.037588865 0.021300811 -0.0025974233
000140 3e 39 28 bd ae 01 18 3e a9 2d c5 bd 14 f8 9b be
       -0.041070215 0.14844391 -0.096278496 -0.30462706
000150 dd 51 b7 3c 21 87 91 bc 83 c7 2d bc 66 b6 09 3e
       0.022377903 -0.01776463 -0.010606649 0.13448486
000160 da 67 a5 3d f8 fb 96 be 3b 6d d5 bd b2 f2 1a bd
       0.08076449 -0.29489112 -0.10421225 -0.03782911
000170 08 3f 40 3e f3 8d 79 3d f4 a1 21 be 0c 0b 8a be
       0.18774045 0.06092639 -0.15784436 -0.26961553
000180 3c 08 74 3d e0 8a aa 3c cf 14 7f be a5 a6 40 bd
       0.059578165 0.020818174 -0.24910282 -0.047033925
000190 64 01 d7 bd 88 3b e0 be e3 fc f9 3e 25 3d 7c bd
       -0.10498312 -0.4379542 0.4882575 -0.06158175
0001a0 e9 b8 85 be 15 84 f9 3c 46 8d 55 bd b2 f8 15 bd
       -0.26117638 0.03045849 -0.052136682 -0.036614127
0001b0 7b 82 12 be 7e 32 e4 be c0 4e 45 be 8d 05 6d 3d
       -0.14307587 -0.44569772 -0.19268322 0.05786662
0001c0 22 fe 0e 3b 83 4e 6b 3a 44 f4 8a 3d 10 b4 20 bd
       0.0021818955 0.0008976238 0.06784871 -0.03923422
0001d0 94 14 80 3e 83 93 a7 be 70 fb 52 bd d3 02 39 3c
       0.250157 -0.3272973 -0.05150932 0.011292177
0001e0 fb da b7 3b 7a d8 3b 3e 74 3a cc 3e 18 72 70 be
       0.0056108213 0.18344298 0.39888346 -0.23481023
0001f0 3e b8 24 be cf 9e 76 3d ba 22 13 3e d8 6a 10 3e
       -0.16085908 0.060210045 0.14368716 0.14103258
000200 93 57 a2 3e de 97 11 3d 44 ed 08 3e 7b f2 ff bc
       0.3170744 0.035545222 0.1337176 -0.031243553
000210 4b 5e 96 bb ac 81 09 be 68 e7 1b 3e 8d a6 94 3e
       -0.0045888773 -0.13428372 0.15224993 0.29033318
000220 b2 35 a3 3e 01 f7 82 bd d3 d4 2e 3d 87 e1 8d bd
       0.31876904 -0.063947685 0.042683434 -0.069277816
000230 d2 43 93 bc 21 7b 99 be 3c 0f 95 be 02 a3 b3 3b
       -0.017976675 -0.29976752 -0.29113185 0.0054820785
000240 8d f9 80 3d 29 79 70 3e 8a a2 05 3e 81 f0 86 bb
       0.06297598 0.23483719 0.13050285 -0.004118026
000250 9d 50 e2 bc 67 dc 25 bd 7c a1 3b 3e c5 da 9a 3d
       -0.02762633 -0.040493395 0.1832332 0.07561258
000260 bf da 24 be 3b cc 22 be b3 1e 09 3e a0 ed dc bd
       -0.1609907 -0.1589822 0.13390617 -0.10787511
000270 5f 11 51 3e 1d 0c 2f 3e a0 46 ad bd da 19 46 bd
       0.20416783 0.17094465 -0.08460736 -0.048364498
000280 c1 96 e8 3e ad d4 0b be df 21 dc bd 94 ce 6a bd
       0.45427516 -0.13655348 -0.10748648 -0.057325915
000290 39 52 fe bd 8a d2 14 3e b8 a9 53 3d ae ba 8c 3b
       -0.124180265 0.1453344 0.05167553 0.004294715
0002a0 78 37 81 3d dd 95 5e bd 66 46 33 bc c0 55 ae bd
       0.06309408 -0.05434214 -0.010942077 -0.08512449
0002b0 d1 1c 0d 3d 41 9b b2 3c b9 e0 05 bd 2f fb df 3d
       0.03445131 0.021802546 -0.032685015 0.10936581
0002c0 88 58 8c 3d c5 99 9b be f3 67 b4 3e 77 8c a3 be
       0.068528235 -0.30390754 0.35235557 -0.31943104
0002d0 e8 d6 b8 be 0a 8d d4 bd 84 f9 66 be c8 c6 2c be
       -0.3610146 -0.103784636 -0.2255612 -0.16872704
0002e0 c9 7b 04 3e 37 95 b0 3d b1 76 f2 bc 70 3e c8 be
       0.12937845 0.086222105 -0.029597612 -0.39110136
0002f0 38 d4 59 be 6e e5 a8 be d0 5a 9c 3e 3b d2 a4 bd
       -0.21272361 -0.3298754 0.30538034 -0.08047911
000300 0d 95 2f 3e 26 66 28 3e 6f a2 74 be 79 7c 43 3e
       0.17146702 0.16445217 -0.23890088 0.19090451
000310 c3 3f b0 3c 80 f3 96 3e 3d 89 f9 bc 5e 7f 01 be
       0.021514779 0.2948265 -0.030460948 -0.12646243
000320 88 b6 3f 3e 2d ee d0 3e 66 a3 06 bd fa 65 d9 3e
       0.18721974 0.40806714 -0.032870673 0.42460614
000330 b0 ac 6b be ef 24 82 bd e5 fc 46 be b4 93 4b bf
       -0.23015094 -0.06354701 -0.19432409 -0.7952225
000340 02 e9 70 36 14 c6 ad b5 8d b4 53 b6 87 d7 02 35
       3.5898415e-06 -1.2947153e-06 -3.1546545e-06 4.874241e-07
000350 80 a3 64 b6 c9 3f fa 35 e6 17 92 36 45 5b ee 35
       -3.4069817e-06 1.8645015e-06 4.353921e-06 1.7758945e-06
000360 31 52 eb b6 5b 8a c7 35 5b 6b 78 34 79 30 63 b5
       -7.013114e-06 1.4866922e-06 2.3135856e-07 -8.4634627e-07
000370 ee 09 e2 35 7a 69 c1 35 fb d1 1f b6 25 b1 bb b5
       1.6841202e-06 1.4410318e-06 -2.381507e-06 -1.3984142e-06
000380 7e b6 01 be 8e cd 3d be 38 12 7e 3e 80 4e 12 be
       -0.12667271 -0.18535444 0.24811637 -0.14287758
000390 5c 53 2d be 08 ab 2a 3d 5b dc fc 3c a2 f5 84 be
       -0.1692633 0.041667014 0.030866792 -0.25968653
0003a0 6a 1e 63 3e 44 34 b3 3d 52 2d 2f bd fa 8e 70 bc
       0.22179571 0.08750203 -0.04276783 -0.014682526
0003b0 cb 18 96 be 5b d8 d4 3d 32 d9 c5 bd b8 87 c9 3d
       -0.2931579 0.10392829 -0.09660567 0.098403394
0003c0 7d 3d 5b bd 19 36 b9 bc 65 ff f9 be b8 30 90 3d
       -0.053525437 -0.022608804 -0.48827663 0.07040542
0003d0 3f d4 a3 3d a6 7e bc be 1b bc 1a 3f 95 4c 9d 3d
       0.07999467 -0.36815375 0.60443276 0.076806225
0003e0 c1 35 56 3e 4c 69 64 3b 5e 79 3a 3c 51 ab 83 3d
       0.20918943 0.00348528 0.011381475 0.064291604
0003f0 12 1f b1 3d 93 b9 91 be 22 73 08 3e 2d fd 3c bc
       0.08648504 -0.28461894 0.1332517 -0.011534971

backbone.conv2.0.conv2d.0.conv1.weight f4 [16, 16, 1, 1]
000000 09 3b 73 bd 47 1a 0f 3e 24 28 77 3d 2a fd 7e bd
       -0.059382472 0.13974868 0.060341015 -0.062253155
000010 8e 94 94 be ec cc ef be 69 33 24 bd c8 5e ba 3c
       -0.29019588 -0.4683603 -0.04008809 0.022750273
000020 bd bf 0b be b3 5f ac 3b ca 3e 72 bd be e3 1f 3e
       -0.13647361 0.0052604317 -0.05914191 0.1561422
000030 e8 3e 99 be bc 56 6b be 3b 0d 9e 3e 47 80 6c 3e
       -0.29930806 -0.22982305 0.3086947 0.23095809
000040 42 c3 42 3e 11 ed f9 3d 80 e3 ee 3c cb 0e 99 be
       0.19019797 0.1220342 0.029161215 -0.298941
000050 11 bc 0a be 6e b6 0e 3e 22 66 4d 3e db 42 e7 bc
       -0.13548304 0.13936779 0.20058492 -0.028230121
000060 dc 0d 04 be 19 ee 10 3c a7 f3 7b be 91 05 12 3e
       -0.12895912 0.008845829 -0.24604665 0.14259936
000070 88 9b 05 3e 2f 63 39 3d c9 c6 ef be f2 e1 8a be
       0.13047612 0.045260604 -0.4683135 -0.27125508
000080 a5 f6 b4 3d 22 83 01 3e 40 1d c1 bd 4f 14 40 bd
       0.08836106 0.1264768 -0.09429407 -0.046894368
000090 af 9e ef bd 5d f1 23 3e f5 00 5b bd 3e 41 99 3d
       -0.11700188 0.16010042 -0.05346771 0.07483147
0000a0 b8 1b 11 bd f6 44 8e bd 81 66 28 bd b7 34 a7 3e
       -0.035426825 -0.06946747 -0.04111338 0.32657406
0000b0 28 25 4d bf af 8b 5c 3e d3 52 7f be a2 49 6e bd
       -0.8013482 0.2153766 -0.24933939 -0.05817569
0000c0 49 60 6b 3e 6c 1c ba bd c1 21 0f 3e 6b ed 1f 3b
       0.22985949 -0.09087452 0.1397772 0.0024402987
0000d0 09 ab 89 3d 75 f6 1a bd 0a 54 1a bd a0 37 b7 bd
       0.067220755 -0.037832696 -0.037677802 -0.089461565
0000e0 6d 4d 46 3d 15 e9 54 3d 82 83 b9 3d d8 99 e0 be
       0.048413683 0.051980097 0.09058286 -0.43867373
0000f0 a3 bc 1d 3f f8 af 6c be 01 bd 0e be b5 93 1f bd
       0.6161596 -0.23114002 -0.13939287 -0.038959224
000100 1e 12 25 be fe 35 4b bc d4 e6 1a 3d 80 6b 94 3d
       -0.16120192 -0.012403009 0.03781779 0.072470665
000110 c1 14 bc be 39 5b 8d bd 0b ac 61 3d 90 7f 7d 3c
       -0.36734584 -0.06902165 0.055095714 0.015472308
000120 de 39 9c be d0 15 38 be 5b dd ad 3d c3 15 13 bd
       -0.305129 -0.17977071 0.08489486 -0.035909425
000130 22 12 a1 3d ea dc f3 3d 45 cb ac bd fb 15 5e bd
       0.07864787 0.119073704 -0.08437208 -0.05422018
000140 4c 54 31 be 1c af e7 bd fe 50 99 3c 1c 51 13 3d
       -0.17317313 -0.11312696 0.018715378 0.035966024
000150 35 9d 4a 3e ee 14 1d 3f b7 fc ea bd 9e 7e 03 3d
       0.19786532 0.6136006 -0.11473983 0.032103173
000160 e1 a3 cd 3d 48 6a 77 be 7e 2f 6d be 14 2e d8 be
       0.10041023 -0.24161637 -0.23162648 -0.42222655
000170 15 33 07 bd 7e d2 c9 3d 97 2e 59 be e0 70 d7 3d
       -0.0330077 0.09854601 -0.21209179 0.10519576
000180 25 22 0c 3f ea 03 62 bd b2 db 92 bd 17 9f 18 bd
       0.547396 -0.055179514 -0.0717081 -0.037261095
000190 3c ef dc bc 4d 07 f7 3c aa b6 a9 bd e4 c6 08 3d
       -0.026969545 0.030154848 -0.082867935 0.033392802
0001a0 64 f9 ec bc 4e 0c 24 bd 44 b5 43 bd 32 83 aa bd
       -0.028927512 -0.040050797 -0.04778029 -0.08325805
0001b0 94 ce 11 be 22 6a 06 bc 1b d7 d9 be 6e 1e 9f be
       -0.1423896 -0.008204015 -0.42546925 -0.31077904
0001c0 e8 58 ba be 14 e7 33 bd c4 98 61 bd 69 88 bf bd
       -0.36395955 -0.043921545 -0.05507733 -0.0935219
0001d0 b3 31 d2 bb 6d ac a5 3d dc 09 3e bd 3d 80 1d 3d
       -0.006414616 0.08089528 -0.04639612 0.038452376
0001e0 98 f7 05 3d aa 75 6f bd 36 6a 18 be c1 4b 00 bd
       0.032706827 -0.058461823 -0.14884266 -0.031322245
0001f0 b8 bf f9 bd 62 07 ec bd b6 07 0f 3f 79 22 f1 3e
       -0.121947706 -0.11524846 0.5587114 0.47096613
000200 7a 81 c9 bc 51 97 28 3e 81 fe 01 3d f7 4f a7 3d
       -0.024597872 0.16463973 0.031736854 0.08169549
000210 3a 48 8d be 72 2f c2 be f9 65 29 bb 7b 36 37 3e
       -0.27594167 -0.37926823 -0.0025848134 0.17891876
000220 f8 d1 35 be de 46 06 3b c5 41 11 3d bb fd ac 3e
       -0.17755878 0.0020489017 0.035463113 0.3378733
000230 ea 55 14 bf af bd 6c 3e f8 dc cd bd 7e 14 2c 3d
       -0.57943594 0.23119234 -0.10051912 0.04201173
000240 3f 62 0e 3d a3 6c 83 3e 0d b0 17 3d b7 b4 e5 3c
       0.034761664 0.2566882 0.03703313 0.028040273
000250 f0 a4 e7 bd 72 14 b7 be 60 62 60 3e f8 d0 0d 3d
       -0.11310756 -0.35757786 0.21912527 0.034623116
000260 10 f0 0e be 20 f3 2a bd 5d 33 06 bd 81 30 d8 3e
       -0.13958764 -0.04173577 -0.032763828 0.42224506
000270 1a c8 65 be fb 4d 0d 3e e2 c2 83 bd dc 8e a3 3d
       -0.22439614 0.13799278 -0.06433655 0.07986233
000280 98 29 32 3e 7d fb a6 3d 12 37 89 3e f9 30 11 bd
       0.1739868 0.08153436 0.26799828 -0.035447095
000290 ff 5a 0b be 9c 81 c9 be d6 94 ff bc e1 92 fc 3a
       -0.13608931 -0.39356697 -0.0311989 0.0019269848
0002a0 3a b4 1c be ff 2a ce 3d c9 ef 92 bd 45 ba 9f be
       -0.15303126 0.100667946 -0.07174642 -0.311968
0002b0 23 e1 0e 3f fb 1a a8 bd 34 0a ce bb 12 cd 20 3d
       0.5581228 -0.08208271 -0.0062878374 0.03925807
0002c0 a9 79 6f 3f 89 fe 7d 3d 36 c8 21 3d 7b 15 1c bd
       0.93545014 0.06201032 0.039497577 -0.038106423
0002d0 76 31 19 3d 66 56 bd bd db e5 b0 3d c0 70 6c 3d
       0.037400685 -0.09244995 0.086375915 0.057724714
0002e0 f8 0b 06 3b 93 17 98 3e 13 12 95 3e 78 8c b2 3d
       0.0020453911 0.29705486 0.29115352 0.087181985
0002f0 be b9 0f 3e e9 f9 97 bd 8c 9c c3 bd 7b 18 97 bd
       0.14035699 -0.074207135 -0.09551343 -0.07377716
000300 ba 39 bf bd a1 91 48 3b 6d 7b 64 3d b7 a8 34 3f
       -0.09337182 0.003060438 0.05578177 0.7056994
000310 1a 6a 16 3b 8e e7 33 be 39 af c4 bd 2f 6f 56 bd
       0.0022951425 -0.175688 -0.096037336 -0.052352127
000320 f5 b5 83 ba 26 0a 5a bc 46 8c f4 3d 10 6a a2 bd
       -0.0010048734 -0.013308084 0.119408175 -0.07930386
000330 6b a4 c3 bd 29 09 12 be d3 0f d4 ba 7d 24 8c bd
       -0.095528446 -0.14261307 -0.0016179032 -0.06842897
000340 15 5b bb be 8a a0 7a 3d ba e5 3d 3e 4a 86 e7 bd
       -0.36592928 0.06118826 0.18544665 -0.113049105
000350 af 12 6c bc ee f7 d7 bc f2 73 c9 bd 55 dd 8c bd
       -0.014408751 -0.02636334 -0.09836568 -0.06878153
000360 1c 6f f1 bd 9a 54 16 3e db 3c 90 bd 0d 33 5a be
       -0.117887706 0.1468071 -0.07042857 -0.21308537
000370 27 b6 84 3d 36 55 54 bd 6d 4f 83 bd de 5e ca 3c
       0.06480055 -0.051839076 -0.06411634 0.02470344
000380 0a 53 a0 3d 2e f6 38 3d dd 65 c9 3d a0 b2 ca 3d
       0.078283384 0.04515665 0.09833882 0.09897351
000390 7c 21 75 bc d5 4c a6 bd 4e 34 c0 bd 14 ef 35 bd
       -0.014961597 -0.08120123 -0.09384976 -0.044417456
0003a0 34 3e ce 3d e7 c5 49 be 3f da 10 bd 1c 4d 0f be
       0.10070458 -0.197044 -0.035364386 -0.13994259
0003b0 cd 7d 5b bd 01 8c ee bd 9e 7d e4 be e5 3d d0 be
       -0.05358677 -0.116477974 -0.44627088 -0.40672222
0003c0 11 03 70 3b 02 7f 54 3e d9 41 b1 3c 2e 68 bd be
       0.0036622921 0.20751575 0.021637844 -0.36993545
0003d0 22 4e 97 bd 0f 42 1c be 9e fb 61 3d 83 97 73 bd
       -0.073879495 -0.15259574 0.0551716 -0.059470665
0003e0 95 e7 04 bb 74 9d 95 3d 76 8e 8e bd 91 f8 d4 3e
       -0.0020279635 0.073054224 -0.06960766 0.4159589
0003f0 e2 98 0e bf ba 6a a4 3b bd fd 28 3d 40 2e 0b be
       -0.5570203 0.0050176056 0.04125761 -0.13591862
